chatbot_model.pth (torch, 54557 bytes, 6 tensors)

fc1.weight f4 [128, 30]
0	0xbd51b003	-0.05119325
1	0x3e4002a7	0.18751012
2	0x3cfa4a18	0.030552909
3	0xbea0d470	-0.31412077
4	0x3bb39d3b	0.00548139
5	0xbe9ff5cd	-0.3124222
6	0xbeac52fd	-0.33657065
7	0x3ca26819	0.019825028
8	0x3d6c534d	0.05769663
9	0x3e641871	0.22274949
10	0xbe205728	-0.15658247
11	0x3c8576df	0.016292034
12	0xbe61c56d	-0.22047968
13	0x3ebb251e	0.36551756
14	0xbd01da71	-0.031702463
15	0x3de3d428	0.1112445
16	0x3ced762c	0.028987013
17	0x3e33979f	0.17538308
18	0x3eb6556e	0.35612053
19	0xbdaf5df6	-0.085628435
20	0xbdfe72cd	-0.1242424
21	0xbb1f25a9	-0.0024283922
22	0x3da0cb69	0.078512974
23	0xbe2d68ad	-0.16934462
24	0xbd474808	-0.04865268
25	0x3d3da0d5	0.04629596
26	0x3e2374d5	0.15962537
27	0xbdd40d30	-0.10354078
28	0xbe34fcb8	-0.1767453
29	0xbd59908b	-0.053116363
30	0x3dcbc197	0.09949034
31	0xbdbe4878	-0.09291166
32	0xbe06f5ea	-0.13179746
33	0xbcf72861	-0.030170621
34	0xbddab84a	-0.106796816
35	0xbe867f1d	-0.26268855
36	0xbe9ce5b8	-0.30644011
37	0xbd93c1b8	-0.07214683
38	0xbd9d8404	-0.076911956
39	0x3de029f8	0.10945505
40	0x3da04c62	0.07827069
41	0x3e18d763	0.14925914
42	0x3eb2f10d	0.34949532
43	0x3e4af135	0.19818576
44	0x3e4de3dd	0.20106454
45	0x3d777140	0.060410738
46	0x3a41201c	0.00073671504
47	0xbe12db3a	-0.14341441
48	0x3eb9c400	0.3628235
49	0x3da5678e	0.08076392
50	0xbe2dab2c	-0.16959828
51	0x3d7d9d8f	0.061917838
52	0x3e11a171	0.14221741
53	0xbe1d5328	-0.15363753
54	0x3e9c40bf	0.30518147
55	0x3e3a327f	0.18183325
56	0x3df8f88f	0.12156784
57	0x3e0bbd8d	0.13646527
58	0xbe8960c2	-0.26831633
59	0xbd60292e	-0.054726772
60	0xbddb10a3	-0.106965326
61	0xbcdab4d7	-0.02669756
62	0x3e4c4efb	0.19952004
63	0x3e8659ef	0.2624049
64	0xbd7200c1	-0.05908275
65	0x3ddd7d7c	0.1081495
66	0x3e89d60b	0.26921114
67	0xbd419fb1	-0.047271434
68	0xbdbb9a5a	-0.091602996
69	0x3e21b8f9	0.15793218
70	0xbd932e91	-0.07186616
71	0x3e420732	0.18948057
72	0xbd253346	-0.0403321
73	0xbe438d92	-0.19096974
74	0x3d8fd199	0.070223995
75	0x3cd025eb	0.025408706
76	0x3e39ccd7	0.18144546
77	0xbe8d05a9	-0.2754338
78	0x3ed6fd6c	0.4199022
79	0xbda5884c	-0.08082637
80	0xbd4e75f7	-0.05040547
81	0x3d17eb07	0.037089374
82	0xbddb8388	-0.10718447
83	0xbe8184bb	-0.25296578
84	0xbde56d7d	-0.11202524
85	0x3e0a9267	0.1353241
86	0xbd2b5bb5	-0.041835506
87	0xbdbbfbac	-0.09178862
88	0x3e8164af	0.25272128
89	0xbd8b2b28	-0.06795341
90	0xbd948965	-0.072527684
91	0x3dd34a35	0.10316888
92	0x3d90b7ec	0.0706633
93	0x3e318f7c	0.17339891
94	0xbdec7ce0	-0.115472555
95	0x3d6ab096	0.05729731
96	0xbeb4e8b0	-0.35333776
97	0xbe686401	-0.22694398
98	0x3e9fead6	0.31233853
99	0x3c99c269	0.01876946
100	0x3c5e2e4f	0.0135608455
101	0xbd178f41	-0.037001852
102	0x3de8b9ac	0.11363539
103	0x3d4bd937	0.0497677
104	0xbd9a59e5	-0.07536677
105	0x3db38192	0.08764948
106	0xbe2a8bb6	-0.16654858
107	0xbe228135	-0.15869601
108	0x3e515fab	0.2044665
109	0x3cdb80bd	0.026794786
110	0x3dcf91aa	0.10135205
111	0x3e49833a	0.19678965
112	0xbe62bdee	-0.22142765
113	0x3e2cafce	0.16863939
114	0xbea9eb4f	-0.3318734
115	0xbcb6abc3	-0.0222987
116	0x3de99f77	0.11407369
117	0xbd146ffc	-0.03623961
118	0x3de520dd	0.11187909
119	0x3cda099a	0.026615907
120	0xbe0c078e	-0.13674757
121	0xb8bd48b3	-9.0257636e-05
122	0xbddd2753	-0.10798516
123	0xbc9a0489	-0.01880099
124	0x3d098d26	0.033581875
125	0xbe47e15d	-0.19519563
126	0xbe55569b	-0.20833819
127	0xbdfbf7f6	-0.12303154
128	0xbeacb930	-0.33735037
129	0x3bd1dd16	0.0064045293
130	0x3e01c723	0.12673621
131	0x3def66c8	0.11689526
132	0xbdcbc38b	-0.09949406
133	0x3eb0d600	0.3453827
134	0xbde1c8cb	-0.11024626
135	0x3d2df22e	0.04246729
136	0x3c0dddec	0.008658867
137	0x3d64d789	0.055869613
138	0x3cc8ebf3	0.024526572
139	0x3db8c640	0.09022188
140	0x3e9499d7	0.2902362
141	0x3e2b9912	0.1675761
142	0x3e97baf9	0.29634836
143	0xbd516377	-0.051120248
144	0xbe11bbca	-0.14231792
145	0x3e462c4c	0.19352835
146	0x3bd9626b	0.006634047
147	0xbdd2f49c	-0.10300562
148	0x3cef632d	0.029222095
149	0x3c29d5c9	0.010365912
150	0x3d649373	0.05580468
151	0xbd4b0913	-0.0495692
152	0xbc211440	-0.009831488
153	0xbe656b2a	-0.22404161
154	0xbc0b5573	-0.008504259
155	0x3e370ffd	0.17877193
156	0xbe4a77fe	-0.19772336
157	0x3e2eca19	0.17069282
158	0x3ec3a13e	0.38208956
159	0xba9b89a1	-0.0011866578
160	0x3dc5d7f1	0.09660328
161	0x3e12eaee	0.14347431
162	0xbd8dd3c4	-0.06925157
163	0x3e26c4f2	0.16286066
164	0x3b0fa526	0.0021918504
165	0xbe2c0cda	-0.16801777
166	0x3e17c03d	0.14819427
167	0x3e3a2ce7	0.18181191
168	0xbdaf1259	-0.085484214
169	0xbaf4c67d	-0.0018674877
170	0x3c3e16df	0.011602133
171	0x3e373e8b	0.17894952
172	0xbe5e4d77	-0.21709238
173	0xbd68c822	-0.056831487
174	0x3e3ce3e6	0.18446311
175	0x3b2a6fdd	0.0026006617
176	0x3c2293de	0.00992295
177	0xbde0a2dc	-0.10968563
178	0xbe862858	-0.26202655
179	0x3e0a44bd	0.13502784
180	0x3d384fa8	0.04499784
181	0x3c173d56	0.009230932
182	0x3e1e9f09	0.15490355
183	0x3de55e99	0.11199684
184	0x3d578365	0.052615542
185	0x3e46d3e4	0.19416767
186	0xbdd11620	-0.10209298
187	0xbe1fe524	-0.15614754
188	0x3e39b9ae	0.18137237
189	0xbd86abd8	-0.06575745
190	0xbcdf7e3f	-0.027281879
191	0x39848b23	0.00025280667
192	0xbe1c3c16	-0.15257296
193	0xbd9fc160	-0.07800555
194	0xbb715d2e	-0.003682922
195	0x3e456e18	0.19280279
196	0xbdd75f37	-0.10516208
197	0xbce6ef1f	-0.028190194
198	0x3e6f7767	0.23385392
199	0xbac02ddc	-0.0014662105
200	0xbe80c952	-0.25153595
201	0x3c6581d7	0.014008007
202	0x3e0eb375	0.13935645
203	0xbe8bf4d0	-0.27335215
204	0xbe88ec0a	-0.26742584
205	0xbd0954ed	-0.033528257
206	0x3e3b44cd	0.18287964
207	0x3e2df9c9	0.16989817
208	0x3e8fe1ae	0.28101867
209	0x3e012c28	0.126145
210	0x3d86d9dc	0.06584522
211	0x3b34273b	0.0027489203
212	0x3dd00f4f	0.1015917
213	0x3dff938d	0.12479315
214	0x3df9045f	0.12159037
215	0xbe841716	-0.25798863
216	0x3e350616	0.17678103
217	0x3e850fd7	0.25988647
218	0x3d3ef7c6	0.046623014
219	0xbdc94841	-0.098282345
220	0xbd18652d	-0.037205864
221	0x3df4fb62	0.1196201
222	0x3bc0020d	0.0058596195
223	0x3ea2471d	0.3169488
224	0x3e95e90c	0.29279363
225	0xbc6cfb0d	-0.014464152
226	0xbdf0b715	-0.1175367
227	0x3e5cf4e1	0.21577789
228	0xbdf38e77	-0.118924074
229	0xbddd328a	-0.10800655
230	0xbe780172	-0.24219301
231	0x3e49c1d1	0.19702841
232	0xbd9e7b62	-0.07738377
233	0xbcce78d6	-0.025204103
234	0x3ebfd87d	0.37469855
235	0xbd9991b1	-0.074984916
236	0x3e1bb38e	0.15205213
237	0x3dd836ce	0.10557328
238	0x3da5bf09	0.08093078
239	0x3d73d6f8	0.059531182
240	0xbc1915ee	-0.009343607
241	0x3dfad3dd	0.12247441
242	0xbd264052	-0.040588684
243	0xbd125355	-0.035724003
244	0xbc962634	-0.018328764
245	0x3c0efd37	0.008727363
246	0x3c26674d	0.010156465
247	0xbd2ae757	-0.04172453
248	0x3c27efaa	0.010250011
249	0x3e073979	0.13205518
250	0x3d837303	0.06418421
251	0x3d5eca9e	0.05439245
252	0x3d4383da	0.047733165
253	0xbcd342b2	-0.025788639
254	0xbd8e63a8	-0.06952602
255	0x3d6e70b6	0.05821296

fc1.bias f4 [128]
0	0xbd12dbde	-0.035854213
1	0xbdd71539	-0.10502095
2	0x3ceb46fe	0.028720375
3	0x3dda41ce	0.106570825
4	0xbdabc9b5	-0.08388082
5	0xbd115a58	-0.03548655
6	0x3da5e036	0.080994055
7	0xbd5166e5	-0.05112352
8	0xbda05397	-0.078284435
9	0x3d6932a3	0.056933057
10	0x3dd077d8	0.101791084
11	0xbd9591bf	-0.073031895
12	0x3c48b370	0.0122498125
13	0x3d6f8afd	0.05848216
14	0x3cf89565	0.030344674
15	0xbe24f883	-0.16110425
16	0x3da9d4a9	0.08292515
17	0x3de3197d	0.11088846
18	0x3e1a8d57	0.1509298
19	0x3e15f482	0.14644054
20	0xbdbc833e	-0.0920472
21	0x3d6e3e5c	0.05816494
22	0x3b3c75b1	0.0028756673
23	0x3e2a0065	0.16601713
24	0x3dc0da75	0.09416667
25	0x3c4a0709	0.012330779
26	0x3e530787	0.2060834
27	0x3e2d21b0	0.16907382
28	0x3c87f485	0.016596088
29	0x3e4c494d	0.19949837
30	0x3d7b827c	0.061403736
31	0xbdf881aa	-0.121341065
32	0x3cbe0982	0.023197893
33	0x3e002e6b	0.12517707
34	0x3dd21f01	0.1025982
35	0xbd0ec238	-0.03485319
36	0xbe125609	-0.14290632
37	0x3d276fdb	0.040878158
38	0x3e07cd08	0.13261807
39	0x3e47035f	0.1943488
40	0xbda9bbda	-0.08287783
41	0x3bd65a0e	0.006541497
42	0xbde9aaa2	-0.11409499
43	0x3dcf628b	0.101262175
44	0xbda82c0d	-0.08211527
45	0xbdbaa15f	-0.0911281
46	0xbdf3e5dc	-0.119090766
47	0x3d4e5ec6	0.05038335
48	0xbd8bc0ac	-0.068238586
49	0x3d25f7f7	0.04051968
50	0x3c5e1280	0.013554215
51	0x3d516697	0.051123228
52	0xbd0561a4	-0.03256382
53	0x3e3475d8	0.17623079
54	0x3d4ef91a	0.05053053
55	0x3c28eb4e	0.010310007
56	0xbd4a1d47	-0.049344327
57	0xbe053ec0	-0.13012218
58	0x3d0f0689	0.03491834
59	0x3d67af8e	0.056563906
60	0xbdcc2201	-0.09967423
61	0x3d59522f	0.053056892
62	0x3c9fc0a1	0.019501032
63	0x3e353403	0.17695622
64	0xbdf8a6f5	-0.121412195
65	0xbd9a7727	-0.07542258
66	0xbba2855f	-0.0049597467
67	0x3d2fa7ec	0.042884752
68	0x3d065ecd	0.032805253
69	0x3d382963	0.044961344
70	0x3d0eed5c	0.034894332
71	0x3e82e4bf	0.25565144
72	0x3e4093a4	0.1880632
73	0x3e1cc826	0.15310726
74	0x3e1e003e	0.1542978
75	0x3e363d89	0.17796911
76	0x3e216edb	0.15764944
77	0x3d649184	0.055802837
78	0xbdc12864	-0.09431532
79	0xbd41493d	-0.047188986
80	0xbe22a46b	-0.15883033
81	0x3e0392c2	0.12848952
82	0x3dbaab00	0.09114647
83	0x3df3bba5	0.11901025
84	0x3c8b9006	0.01703645
85	0xbd264016	-0.04058846
86	0x3dd7bbbe	0.10533856
87	0x3e3639f3	0.17795543
88	0x3e177193	0.14789419
89	0x3e52be29	0.20580353
90	0x3e010660	0.12600088
91	0x3df12f1c	0.117765635
92	0x3d546fa8	0.051864296
93	0xbd058e90	-0.03260666
94	0x3be8b675	0.0071018287
95	0x3e38e9ad	0.1805789
96	0xbc23cc55	-0.009997447
97	0xbe1b4382	-0.15162471
98	0x3e0e10f6	0.13873658
99	0x3e2adc3c	0.16685575
100	0xbdbecdd7	-0.093166046
101	0xbd927d34	-0.07152787
102	0x3d60ff2a	0.054930843
103	0x3e461b01	0.19346239
104	0xbdaeed71	-0.08541382
105	0xbd8f4ff1	-0.069976695
106	0x3d00bbdd	0.03142916
107	0xbd3fd03d	-0.04682945
108	0xbcafd616	-0.021464389
109	0x3cbbd89f	0.022930441
110	0x3d94b303	0.07260706
111	0xbdfc934c	-0.12332782
112	0x3df62ad4	0.120198876
113	0xbdff95e1	-0.12479759
114	0x3d326252	0.043550797
115	0xbc7aee0b	-0.015315543
116	0xbdc1fba3	-0.09471824
117	0x3d305efb	0.04305933
118	0x3e115784	0.14193541
119	0x3d829954	0.06376901
120	0xbdb0ab6e	-0.086264476
121	0x3e253ecf	0.16137241
122	0x3dbaafb5	0.09115545
123	0xbbaf86de	-0.0053566536
124	0xbd1782a4	-0.036989823
125	0x3dff65d4	0.12470594
126	0x3e0e01dd	0.13867898
127	0x3e4ac8dc	0.19803184

fc2.weight f4 [64, 128]
0	0x3c234358	0.0099647865
1	0x3d647adf	0.05578124
2	0x3e25646b	0.16151588
3	0x3d74fb77	0.059810128
4	0xbd966cd9	-0.0734498
5	0xbe094d74	-0.13408452
6	0x3e024d2f	0.12724756
7	0x3c5e4202	0.013565542
8	0x3bc781dc	0.0060884785
9	0x3e0bb1a0	0.13641977
10	0x3d585d46	0.052823327
11	0xbdc5c653	-0.09656968
12	0x3d40f5c0	0.047109365
13	0x3db5dfd1	0.0888058
14	0x3ce25dda	0.027632643
15	0xbd5b35fe	-0.053518288
16	0x3d73fd67	0.059567835
17	0xbd6d88c2	-0.05799175
18	0x3d8936cf	0.06699907
19	0x3d93912e	0.07205425
20	0xbe07c66d	-0.13259287
21	0x3dc27fd5	0.09497038
22	0xbcd7dc9b	-0.02635031
23	0x3de5c3c4	0.1121898
24	0x3ba49134	0.0050221924
25	0x3bfaf4b5	0.007658566
26	0x3d3b07a1	0.045661572
27	0x3dc5a8e7	0.09651356
28	0x3b69486f	0.0035596152
29	0x3de0af5e	0.10970949
30	0xbca1a6b0	-0.019732803
31	0x3b2d1a60	0.0026413426
32	0x3e44799c	0.19187015
33	0x3d4db219	0.050218675
34	0x3d90f2d7	0.07077568
35	0xbc6a9ea2	-0.014320048
36	0x3caf1b81	0.02137542
37	0xbd348988	-0.044076473
38	0x3cd9e0f1	0.026596518
39	0xbdd985ce	-0.10621224
40	0x3db726eb	0.0894297
41	0xbd8b0937	-0.06788867
42	0x3d72ae5c	0.059248313
43	0xbd71ae86	-0.05900433
44	0xbc915cd9	-0.017744469
45	0xbd7ba2ec	-0.06143467
46	0x3d0a7cec	0.03381054
47	0x3d7b69bc	0.061380133
48	0x3c3461fe	0.011009691
49	0xbc935f05	-0.017989645
50	0x3d003ff0	0.031310976
51	0x3e454e1d	0.19268079
52	0xbcaa1397	-0.020761294
53	0x3d9d2079	0.07672209
54	0xbe199342	-0.1499758
55	0x3b82ee71	0.0039957096
56	0xbe7f607f	-0.24939154
57	0xbd683814	-0.056694105
58	0x3e06bf1b	0.13158838
59	0x3db253ec	0.08707413
60	0x3e018dec	0.12651795
61	0x3dac468d	0.08411894
62	0x3c6582fc	0.01400828
63	0xbda8d8fb	-0.08244511
64	0xbcd4e51e	-0.025988158
65	0xbd28469f	-0.041082975
66	0x3e2fe56b	0.1717736
67	0x3cbca4a6	0.02302773
68	0xbb1b3515	-0.0023682762
69	0x3d97f9bd	0.07420681
70	0xbc87a75f	-0.016559301
71	0xbb98bc54	-0.0046611223
72	0xbdc801a0	-0.09765935
73	0x3e5809a5	0.21097429
74	0x3dc9fc21	0.09862543
75	0xbdc52b53	-0.09627404
76	0xbe1c3f84	-0.15258604
77	0x3c0e5a54	0.008688528
78	0xbda5df7c	-0.08099267
79	0x3c9f719b	0.019463351
80	0x3c0de698	0.008660935
81	0xbda2c80a	-0.07948311
82	0x3d2d2208	0.042268783
83	0xbe0819fb	-0.13291161
84	0xbcaa74b0	-0.020807594
85	0x3e4f5749	0.2024814
86	0xbd2fcbf2	-0.042919107
87	0xbdef626c	-0.11688694
88	0x3daf81ff	0.08569717
89	0x3d0c9fa8	0.034331948
90	0xbd5dcbab	-0.05414931
91	0xbdafe0ac	-0.08587775
92	0xbdb0ce0a	-0.08633049
93	0xbc2e0025	-0.010620152
94	0x3da055a1	0.078288324
95	0xbdac89d3	-0.084247254
96	0xbcb59626	-0.022166323
97	0xbd65a61b	-0.056066614
98	0x3d7042ef	0.058657583
99	0xbdb8f0a7	-0.09030276
100	0x3d154c38	0.03644964
101	0x3dfd9eaa	0.123837784
102	0xbc092a76	-0.00837194
103	0xbc83d0c4	-0.016090758
104	0xbd104f8d	-0.035232116
105	0x3d7c1656	0.06154474
106	0x3a909502	0.0011030736
107	0xbdbad037	-0.09121745
108	0x3e311914	0.17294723
109	0x3dbca3bf	0.092109196
110	0x3e384909	0.1799661
111	0x3e35bf50	0.17748761
112	0xbd9ef84b	-0.07762202
113	0x3d16c1f1	0.03680605
114	0xbdcb4970	-0.099261165
115	0xbe2944a4	-0.1653009
116	0xbd116d88	-0.035504848
117	0x3e0fce8c	0.14043635
118	0x3d5ccbc5	0.053905267
119	0x3d6045b7	0.054753985
120	0xbd891d73	-0.0669507
121	0x3cbce90a	0.02306034
122	0x3e32b876	0.17453179
123	0x3dbace0f	0.09121334
124	0xbdecfc64	-0.11571577
125	0x3db063c7	0.08612781
126	0x3d888bf8	0.06667322
127	0xbd29d1e0	-0.041459918
128	0x3e0d869e	0.13820884
129	0x3e221b80	0.15830803
130	0x3d3d1957	0.046166744
131	0x3e411535	0.18855746
132	0xbcaa1a38	-0.020764455
133	0xbd9376e9	-0.07200415
134	0xbd2b2e82	-0.0417924
135	0xbd887c78	-0.066643655
136	0x3d4506e1	0.048102263
137	0x3e58b53d	0.21162887
138	0x3dc8ae4e	0.09798871
139	0xbd2bb956	-0.041924797
140	0x3c1a7b51	0.009428815
141	0xbccdc2bd	-0.025117273
142	0xbc63ce2f	-0.0139041385
143	0x3ca3fafc	0.02001714
144	0x3d1871ca	0.037217893
145	0x3e1ede65	0.15514524
146	0x3d944ed0	0.07241595
147	0x3d1784fc	0.03699206
148	0x3d818733	0.06324615
149	0xbdb590a0	-0.08865476
150	0xbdaa6a6e	-0.08321081
151	0x3d90adb4	0.07064381
152	0x3ddd33dc	0.10800907
153	0x3a98b66e	0.0011651048
154	0xbda6823d	-0.0813031
155	0x3d2a93a1	0.041644696
156	0x3d3a49ad	0.04548042
157	0x3d2f01fc	0.0427265
158	0x3be008d1	0.0068369885
159	0x3d8e7683	0.06956198
160	0x3e1406b2	0.14455679
161	0xbd99d6a3	-0.07511642
162	0x3d8eabd4	0.06966367
163	0xbdbacffa	-0.091217
164	0x3ccc5ac3	0.024945622
165	0x3d95a063	0.07305982
166	0x3e037cce	0.12840578
167	0x3e6f435a	0.23365536
168	0x3dc7d6dc	0.09757778
169	0x3d87ddbf	0.066340916
170	0x3c1ca409	0.009560593
171	0x3d5ea53a	0.05435679
172	0xbc619d71	-0.013770447
173	0xbd87cfc0	-0.06631422
174	0xbceb67b2	-0.02873597
175	0x3d30ab20	0.043131948
176	0xbb23d3d4	-0.0024998086
177	0xbe01283c	-0.12613004
178	0xbd84ed4e	-0.06490575
179	0x3dd7e7ff	0.105422966
180	0xbc49bc2c	-0.01231293
181	0xbd8e6071	-0.069519885
182	0xbe03c16c	-0.12866753
183	0xbc5ab2c8	-0.013348289
184	0xbd8ee94e	-0.06978093
185	0x3c6661b0	0.014061376
186	0x3e2e031b	0.16993372
187	0xbcae1b60	-0.021253288
188	0x3da69dca	0.081355646
189	0x3d19c4c8	0.03754118
190	0x3d6a937d	0.057269562
191	0xbd984a4a	-0.074360445
192	0xbd68653f	-0.05673718
193	0x3daeeb6b	0.08540996
194	0xbdea94e0	-0.11454177
195	0xbdf1bfbc	-0.118041486
196	0xbd83556e	-0.06412779
197	0x3db71776	0.08940022
198	0xbd9c09a4	-0.07619026
199	0xbdc44537	-0.09583514
200	0x3cca74e1	0.024713935
201	0x3dfbd675	0.12296764
202	0x3e64b679	0.22335233
203	0x3c41403d	0.011795101
204	0xbe4a5620	-0.19759417
205	0x3c604eb4	0.013690639
206	0xbd38b416	-0.04509362
207	0xbe29098d	-0.1650755
208	0x3c44f050	0.012020186
209	0x3c481e4c	0.012214255
210	0xbdb2b3e4	-0.08725718
211	0xbc0932f6	-0.008373966
212	0x3d440beb	0.04786293
213	0x3df193bf	0.117957585
214	0xbcae41f7	-0.021271689
215	0xbc846738	-0.0161625
216	0x3c2139ab	0.009840409
217	0xbcd82645	-0.026385436
218	0x3dcbad39	0.09945149
219	0xbd8a3bee	-0.06749712
220	0x3d8084c2	0.062753215
221	0x3d4e37b7	0.050346103
222	0xbdb4aa08	-0.088214934
223	0x3d94bd0f	0.072626226
224	0x3dd3d00f	0.103424184
225	0xbd82c079	-0.063843675
226	0xbdbc0ce2	-0.09182145
227	0x3d53e320	0.051730275
228	0xbc37f8a8	-0.011228718
229	0x3d9f1177	0.07767003
230	0xba32272b	-0.00067959976
231	0x3dbc83a9	0.092048
232	0x3dd5b376	0.1043462
233	0xbd27d6de	-0.040976398
234	0xbd94e37c	-0.07269952
235	0xbdac3ad3	-0.08409657
236	0x3e099f31	0.13439633
237	0x3e0c043b	0.13673489
238	0x3deec686	0.11658959
239	0x3cabc2ee	0.020966973
240	0xbe269d7c	-0.16271013
241	0xbca7ed37	-0.020498855
242	0xbd7f3f40	-0.06231618
243	0xbdabfd42	-0.083979145
244	0x3d1baef5	0.03800865
245	0x3dfe9390	0.12430489
246	0xbd563edc	-0.05230604
247	0xbd2adc90	-0.04171425
248	0xbd68543e	-0.056720965
249	0xbbb5cd9f	-0.0055481936
250	0x3da5d3e6	0.08097057
251	0x3c346956	0.011011442
252	0x3d861f17	0.06548899
253	0xbda044a3	-0.078255914
254	0x3bc20557	0.0059210467
255	0xbe2df76e	-0.16988918

fc2.bias f4 [64]
0	0x3da6e5f3	0.08149328
1	0x3dd4fa55	0.103993095
2	0x3d0f621b	0.03500567
3	0x3d880473	0.066414736
4	0xbc8daeeb	-0.017295321
5	0x3bb6529e	0.005564048
6	0x3cc7a181	0.024369003
7	0x3d9c742f	0.07639348
8	0x3d0757fd	0.033042897
9	0x3d2acc50	0.041698754
10	0x3b69558b	0.0035603966
11	0x3d42eb46	0.047587655
12	0x3c1cc948	0.009569474
13	0x3d3b6808	0.04575351
14	0xbbffe8f2	-0.0078097517
15	0xbd6d82cc	-0.057986066
16	0x3b467094	0.0030279504
17	0x3df65622	0.12028147
18	0xbd133d47	-0.03594711
19	0x3dc08b33	0.0940155
20	0x3dcde07e	0.10052584
21	0x3de31a51	0.11089004
22	0x3da1c90c	0.07899675
23	0x3b620160	0.0034485683
24	0x3c903288	0.01760222
25	0xbb9d2466	-0.004795599
26	0x3b96ba11	0.0045998176
27	0x3b9f66ee	0.004864565
28	0x3d857906	0.06517224
29	0x3dcf0a26	0.101093575
30	0x3ddcffd5	0.107909836
31	0xbcbfc018	-0.023407027
32	0x3db1e9e8	0.08687192
33	0x3dc81f91	0.09771646
34	0xbcca0654	-0.02466122
35	0x3b173469	0.002307201
36	0x3d874faa	0.066069916
37	0x3da55a28	0.080738366
38	0x3d51e26e	0.05124133
39	0xbc88d1f0	-0.016701669
40	0xbd64f94c	-0.05590181
41	0x3e04a604	0.12953955
42	0x3dd5b4f3	0.10434904
43	0x3d7ca3bd	0.06167959
44	0x3d2541ab	0.04034583
45	0xbd5fed58	-0.054669708
46	0xbb247a49	-0.0025097302
47	0x3d8ae1f0	0.067813754
48	0xbd205826	-0.039146565
49	0xbc52c5a9	-0.012864509
50	0x3daec8a4	0.08534363
51	0x3d75afa7	0.05998197
52	0x3d9bce39	0.07607693
53	0x3b7bbc7b	0.0038411904
54	0x3d69eee9	0.057112608
55	0x3e009d38	0.12559974
56	0xbd28133a	-0.04103396
57	0x3db8c0c2	0.09021141
58	0x3d62ae3e	0.05534195
59	0x3dd41f3a	0.103575185
60	0x3d4c074e	0.049811654
61	0x3c9b3cd6	0.018949907
62	0xbd1267ce	-0.035743527
63	0x3d0ea872	0.03482861

fc3.weight f4 [10, 64]
0	0x3e2c9815	0.1685489
1	0x3e2ff75a	0.17184201
2	0xbe2ec73f	-0.17068194
3	0xbd9bce08	-0.07607657
4	0x3e5a79de	0.21335551
5	0xbd6fdc56	-0.058559738
6	0x3cc86bad	0.024465406
7	0xbe8bf5e4	-0.27336037
8	0x3e0f2132	0.13977507
9	0x3e04cca9	0.12968697
10	0x3e43239d	0.19056554
11	0xbe630e0f	-0.22173332
12	0x3d363054	0.044479683
13	0x3d8f20b3	0.06988659
14	0xbe4a7fc8	-0.19775307
15	0x3e415e24	0.18883568
16	0xbe763ec6	-0.24047384
17	0x3e014144	0.12622553
18	0x3d9e6332	0.07733764
19	0xbc8edab5	-0.017438272
20	0xbd4080e5	-0.046997923
21	0x3dade4a8	0.08490878
22	0xbdf646eb	-0.12025245
23	0xbdb32024	-0.08746365
24	0xbdb84d99	-0.089991756
25	0x3cee1fa9	0.029067831
26	0xbe2a0132	-0.16602018
27	0xbe910849	-0.28326634
28	0x3d6fcd55	0.05854543
29	0x3c018e60	0.00790748
30	0x3dda4636	0.10657923
31	0xbdb1ee96	-0.08688085
32	0x3cefb88f	0.02926281
33	0xbe892777	-0.26787922
34	0xbe8535b8	-0.26017547
35	0x3e2bbf6a	0.16772237
36	0x3c3807fe	0.011232374
37	0x3d4f5c10	0.050624907
38	0xbe89af60	-0.26891613
39	0xbd18e092	-0.037323542
40	0xbeb66c18	-0.35629344
41	0xbe018245	-0.1264735
42	0x3d2b74f2	0.041859575
43	0xbe00af27	-0.12566815
44	0xbd0fa5f1	-0.035070363
45	0x3e3284bc	0.17433447
46	0xbd8b3a5a	-0.06798239
47	0xbda44f28	-0.0802291
48	0xbdd7681d	-0.10517905
49	0xbda25b93	-0.07927623
50	0xbe908622	-0.28227335
51	0x3e35dfcf	0.17761157
52	0x3dc0913e	0.09402703
53	0xbd80d9a0	-0.06291509
54	0x3c52521c	0.012836959
55	0xbc113947	-0.008863754
56	0x3c07a981	0.008280159
57	0x3d9ee805	0.07759098
58	0x3e826a43	0.25471696
59	0xbdc1eb2a	-0.09468682
60	0xbe801e95	-0.25023332
61	0x3d8f126b	0.06985935
62	0xbd7d92ca	-0.061907567
63	0xbe16e9e7	-0.14737664
64	0xbdd8273a	-0.10554357
65	0x3e46c89e	0.19412467
66	0x3d8891e9	0.06668455
67	0x3dd3633c	0.10321662
68	0x3c8fa9df	0.017537056
69	0xbdddf4c6	-0.108377025
70	0x3e0677cb	0.13131635
71	0x3e0744dd	0.13209863
72	0xbbadada5	-0.005300241
73	0x3e1e0631	0.1543205
74	0xbdb54fe9	-0.08853132
75	0xbe876385	-0.26443115
76	0x3cc5c7c1	0.024143102
77	0xbe31a9b9	-0.173499
78	0x3d0596ec	0.032614633
79	0xbe37def0	-0.17956138
80	0x3daa29a7	0.08308726
81	0xbe4146d5	-0.18874677
82	0x3e00cd3b	0.12578289
83	0xbe47dab2	-0.1951702
84	0xbe79befe	-0.24389264
85	0xbcbbe460	-0.022936046
86	0xbb0eb760	-0.002177678
87	0xbe2379e4	-0.15964466
88	0xbb93cabc	-0.004510252
89	0x3df31395	0.11868969
90	0xbe02cc40	-0.12773228
91	0xbde15b8c	-0.11003789
92	0x3de65623	0.11246898
93	0xbe910b61	-0.28328994
94	0x3d5ec268	0.05438462
95	0x3ca5cf7c	0.020240538
96	0x3dba5c46	0.09099631
97	0x3e31569a	0.17318192
98	0xbe734ef5	-0.23760588
99	0x3df187c6	0.11793475
100	0x3e216cba	0.15764132
101	0x3e1bd264	0.15216976
102	0xbe92bd3a	-0.28659993
103	0xbea2c62d	-0.3179182
104	0x3df3e35e	0.11908601
105	0xbe68776a	-0.22701803
106	0x3d2b2bdb	0.04178987
107	0xbba870a4	-0.005140381
108	0x3e434b67	0.19071732
109	0xbdc82a1e	-0.09773658
110	0x3d68c121	0.056824807
111	0xbe835485	-0.2565042
112	0x3e057940	0.13034534
113	0xbcec82ed	-0.028871024
114	0x3dd944b7	0.106088094
115	0xbe58048d	-0.21095486
116	0xbd218dec	-0.039441988
117	0xbe8bbd07	-0.27292654
118	0xbe02e66c	-0.12783211
119	0x3d38592c	0.045006916
120	0xbe090a57	-0.1338285
121	0xbdba196f	-0.09086882
122	0xbe27f709	-0.1640283
123	0xbea1e6f9	-0.3162153
124	0x3d5df57e	0.054189198
125	0x3e02f39c	0.12788242
126	0x3da180e2	0.078859106
127	0xbe935bd2	-0.2878099
128	0xbd27a409	-0.04092792
129	0xbe8523d3	-0.26003894
130	0x3e4ea1f5	0.20178969
131	0x3d8c8071	0.06860436
132	0x3dad3609	0.08457572
133	0xbd23cfec	-0.03999321
134	0xbe2959de	-0.16538188
135	0xbe4b79a8	-0.19870627
136	0x3da1391f	0.07872223
137	0x3ddb3d42	0.107050434
138	0xbe601d80	-0.21886253
139	0xbe264388	-0.16236699
140	0xbe381025	-0.17974909
141	0xbe0a5a78	-0.13511074
142	0x3dd2e28e	0.10297118
143	0xbe11853e	-0.14210984
144	0x3e0542c8	0.13013756
145	0x3dfc2fdf	0.12313818
146	0xbe3619a3	-0.17783217
147	0xbdde7672	-0.108624354
148	0x3b95e933	0.0045749187
149	0xbbdc8bfc	-0.0067305546
150	0xbe158211	-0.14600398
151	0x3e333a22	0.17502645
152	0x3e3ee39a	0.1864151
153	0x3da77f3f	0.08178567
154	0xbdbc7844	-0.09202626
155	0xbdee0c9f	-0.11623501
156	0xbdc3126d	-0.09524999
157	0x3e3f40cf	0.18677066
158	0x3e111b7f	0.14170645
159	0x3d970618	0.07374209
160	0x3dbe1c59	0.09282751
161	0xbdbf850e	-0.0935155
162	0xbdb27515	-0.08713738
163	0x3df3db1f	0.119070284
164	0xbd3f59a8	-0.046716362
165	0x3d618981	0.055062775
166	0xbd183e08	-0.037168533
167	0xbc9ca2e3	-0.01912064
168	0xbdfbf5e9	-0.12302763
169	0xbc824447	-0.015901698
170	0x3d2e3a15	0.04253586
171	0x3d07cfe9	0.033157263
172	0xbe826ef6	-0.2547528
173	0xbe42c8c2	-0.19021896
174	0xbd50f781	-0.051017288
175	0x3d45042b	0.048099678
176	0x3daf6c81	0.08565617
177	0x3e020c3d	0.12699981
178	0xbc445119	-0.011982226
179	0xbd8eeb8e	-0.06978522
180	0xbe8f22b8	-0.27956176
181	0xbe8d78d9	-0.27631262
182	0xbdce2ae0	-0.100667715
183	0x3ddda137	0.10821765
184	0x3e36ef2f	0.17864679
185	0xbdd75229	-0.10513718
186	0xbe507ef8	-0.20360935
187	0x3db55292	0.0885364
188	0xbe194c69	-0.14970554
189	0xbe8d48aa	-0.275945
190	0xbdd1f219	-0.102512546
191	0x3d9c49e8	0.07631284
192	0xbe2ab937	-0.16672216
193	0xbe206f97	-0.15667568
194	0x3d8fc19a	0.070193484
195	0xbe78c5ef	-0.24294256
196	0x3d5c10a8	0.053726822
197	0x3e5d3d38	0.21605384
198	0x3db8d260	0.09024501
199	0xbe1d6cc2	-0.15373519
200	0xbcfb796d	-0.030697549
201	0xbe008dba	-0.12554064
202	0xbdaba6db	-0.083814345
203	0xbd3d0599	-0.046147916
204	0xbe90658c	-0.28202474
205	0xbe1a97ad	-0.15096922
206	0xbe5fc0c4	-0.21850878
207	0x3ca771ba	0.020439971
208	0xbab490b7	-0.0013776039
209	0xbd1ed470	-0.038776815
210	0xbe6324d1	-0.22182013
211	0xbe5485f1	-0.2075422
212	0xbe486e3d	-0.19573303
213	0xbe91b0b5	-0.2845513
214	0xbc0b8132	-0.008514689
215	0x3ddc753a	0.10764547
216	0x3e23edd4	0.16008693
217	0xbe803660	-0.25041485
218	0x3e2b8745	0.1675082
219	0x3c1e104e	0.009647442
220	0x3e0f0643	0.13967232
221	0x3dce75b6	0.10081045
222	0xbe93c1f1	-0.28858903
223	0x3d803746	0.062605426
224	0xbe8e7e68	-0.27830815
225	0x3e021cd0	0.12706304
226	0x3e539f1b	0.20666163
227	0xbea2e4a5	-0.31815067
228	0x3db2c258	0.087284744
229	0xbda74f5f	-0.08169436
230	0x3e114889	0.14187826
231	0xbd66c20f	-0.056337412
232	0x3e16cdbb	0.14726917
233	0xbdd6bd1f	-0.10485291
234	0x3d94bd66	0.072626874
235	0x3e00bfae	0.1257312
236	0x3d6a8180	0.057252407
237	0x3bf2e7de	0.0074128946
238	0x3dc39fa5	0.09551934
239	0xbe35de51	-0.17760588
240	0x3d40daea	0.047083773
241	0x3db63db9	0.088984914
242	0xbe6ee106	-0.23328027
243	0x3e1262e8	0.14295542
244	0xbde1c692	-0.110242024
245	0x3de5204e	0.11187802
246	0x3d9f11c7	0.07767063
247	0x3c929785	0.017894516
248	0xbe36611f	-0.17810486
249	0xbd42bd7f	-0.047544
250	0xbe2e7d67	-0.17040025
251	0xbe973c80	-0.29538345
252	0x3cc52be7	0.024068786
253	0x3e3216ad	0.17391463
254	0x3b55c578	0.0032618921
255	0x3d34c4e9	0.0441331

fc3.bias f4 [10]
0	0x3c998d9a	0.018744279
1	0xbe014645	-0.12624462
2	0xbdde16a7	-0.10844164
3	0x3d105113	0.03523357
4	0xbcb075c8	-0.021540537
5	0xbcce9b54	-0.02522055
6	0xbd02a8cc	-0.03189926
7	0xbd78ae39	-0.060713027
8	0x3dee241d	0.11627982
9	0x3d91a9f0	0.07112491
